…
2020-08-19 20:36:43.102452: I tensorflow/core/platform/profile_utils/cpu_utils.cc:102] CPU Frequency: 2799925000 Hz
2020-08-19 20:36:43.103563: I tensorflow/compiler/xla/service/service.cc:168] XLA service 0x7fe660000b60 initialized for platform Host (this does not guarantee that XLA will be used). Devices:
2020-08-19 20:36:43.103648: I tensorflow/compiler/xla/service/service.cc:176]   StreamExecutor device (0): Host, Default Version
Model: "sequential"
_________________________________________________________________
Layer (type)                 Output Shape              Param #   
=================================================================
conv2d (Conv2D)              (None, 222, 222, 32)      896       
_________________________________________________________________
max_pooling2d (MaxPooling2D) (None, 111, 111, 32)      0         
_________________________________________________________________
conv2d_1 (Conv2D)            (None, 109, 109, 64)      18496     
_________________________________________________________________
max_pooling2d_1 (MaxPooling2 (None, 54, 54, 64)        0         
_________________________________________________________________
conv2d_2 (Conv2D)            (None, 52, 52, 128)       73856     
_________________________________________________________________
max_pooling2d_2 (MaxPooling2 (None, 26, 26, 128)       0         
_________________________________________________________________
conv2d_3 (Conv2D)            (None, 24, 24, 128)       147584    
_________________________________________________________________
max_pooling2d_3 (MaxPooling2 (None, 12, 12, 128)       0         
_________________________________________________________________
flatten (Flatten)            (None, 18432)             0         
_________________________________________________________________
dropout (Dropout)            (None, 18432)             0         
_________________________________________________________________
dense (Dense)                (None, 512)               9437696   
_________________________________________________________________
dense_1 (Dense)              (None, 10)                5130      
=================================================================
Total params: 9,683,658
Trainable params: 9,683,658
Non-trainable params: 0
_________________________________________________________________
Found 7500 images belonging to 10 classes.
Found 1500 images belonging to 10 classes.
Found 2000 images belonging to 10 classes.
(64, 224, 224, 3)
(64, 10)
